best_models/all_model_dgcn_lr_0.05_weight_decay_1e-08_layers_1_distance_5_train_percent_0.5_alpha_0.9_h_init_128_neighbor_number_100_walkers_175_walk_length_25_window_size_5_epochs_5_alpha_0.9_reweight_0.5.pt (torch, 9887 bytes, 4 tensors)

conv1.weight f4 [128, 16]
0	0xbe117131	-0.14203335
1	0x3ca01aee	0.019544091
2	0x3e530c79	0.20610227
3	0xbe78442c	-0.24244756
4	0xbf233369	-0.6375032
5	0xbd378a9e	-0.04480993
6	0xbcb754ec	-0.022379361
7	0x3e9d0f37	0.3067567
8	0xbe846600	-0.2585907
9	0x3ee4d297	0.44691917
10	0xbd0f3475	-0.034962136
11	0xbec33aee	-0.38130897
12	0x3e930d3a	0.2872103
13	0xbf02a5c0	-0.51034164
14	0xbe3ff239	-0.18744744
15	0x3e9498a4	0.29022706
16	0xbe3df316	-0.18549761
17	0x3ebddb3a	0.3708132
18	0x3f21fc5e	0.63275707
19	0xbe91c6b2	-0.28471905
20	0x3d80db88	0.06291872
21	0xbef1897e	-0.4717521
22	0x3eddeace	0.43343204
23	0xbecd74d1	-0.40128186
24	0xbe40f695	-0.18844064
25	0x3f24b1b0	0.6433363
26	0x3d449e12	0.04800231
27	0xbf042ae5	-0.5162795
28	0x3f4e2ab2	0.805339
29	0x3eac5ba0	0.33663654
30	0xbd94209e	-0.07232784
31	0x3ef1a7f8	0.47198462
32	0xbeac0f1e	-0.33605283
33	0x3d4dd7c5	0.050254602
34	0x3f10c05c	0.5654352
35	0xbe057eec	-0.13036698
36	0xbe9a4c2c	-0.3013624
37	0xbf1088d7	-0.564588
38	0xbecef98f	-0.40424773
39	0x3c94ccd0	0.018164068
40	0x3e2fa0f3	0.17151241
41	0x3eeddfa6	0.46459693
42	0xbeb0ed9a	-0.34556276
43	0xbd14c1e5	-0.036317725
44	0x3ea795ee	0.32731575
45	0x3d85a017	0.06524675
46	0xbe57a3e4	-0.21058613
47	0x3dc2dfe1	0.09515358
48	0xbd39c115	-0.045350153
49	0x3d4ca8df	0.049965736
50	0x3e1b95f6	0.15193924
51	0xbd93389c	-0.07188532
52	0xbd8a94ad	-0.06766639
53	0xbe63f7be	-0.22262475
54	0x3e81a534	0.25321352
55	0xbd19d424	-0.03755583
56	0x3ed554fd	0.41666403
57	0x3d386ad8	0.04502377
58	0x3ec663f7	0.38748142
59	0x3f121603	0.5706484
60	0xbcd9651d	-0.026537472
61	0x3eb43b0a	0.35201293
62	0x3c402f0a	0.011729965
63	0x3dc41b6b	0.09575542
64	0xbd435060	-0.047684073
65	0x3e213a75	0.15744956
66	0x3dd33880	0.10313511
67	0x3e9724aa	0.2952016
68	0x3dc6c32b	0.09705194
69	0x3ed3139c	0.41225898
70	0xbebe2d68	-0.37144017
71	0x3e0d3972	0.13791445
72	0x3b386826	0.002813825
73	0xbee0bb59	-0.43892935
74	0x3edec3fb	0.43508896
75	0x3deaf942	0.114733234
76	0x3e8fef3c	0.2811221
77	0x3db45d55	0.08806864
78	0xbdb835e0	-0.08994651
79	0x3eb5fcbd	0.35544387
80	0xbe3f09e3	-0.18656115
81	0x3d955e1b	0.0729334
82	0x3e51852e	0.2046096
83	0x3eb140c1	0.34619716
84	0xbec06e64	-0.3758422
85	0x3ecf60c3	0.4050351
86	0xbef74968	-0.48298192
87	0x3e14ee66	0.14544067
88	0x3eb90c55	0.3614222
89	0x3f731fb6	0.9497026
90	0xbf1bdc73	-0.60883254
91	0xbe9b7dfc	-0.30369556
92	0x3eef35dc	0.4672078
93	0x3ddf223d	0.10895202
94	0x3dc70bc6	0.097190425
95	0x3efcaaf6	0.49349183
96	0xbe8748c2	-0.26422697
97	0xbeb3ef6d	-0.35143605
98	0xbe1f3fa6	-0.15551624
99	0xbf5cd3a4	-0.8626044
100	0x3e43e9c6	0.19132146
101	0xbcbfd7e5	-0.023418376
102	0x3e805530	0.25064993
103	0xbedce972	-0.43146855
104	0xbe232b67	-0.15934525
105	0xbe13d668	-0.14437258
106	0xbd70b2f5	-0.058764417
107	0x3ebb2a86	0.3655588
108	0xbe35c4e6	-0.17750892
109	0xbd268dad	-0.040662456
110	0xbe71e09c	-0.23620838
111	0xbe86503b	-0.26233086
112	0xbea2c107	-0.31787893
113	0xbe03a213	-0.12854795
114	0x3ec451f4	0.38343775
115	0x3e076442	0.13221839
116	0xbd9114a4	-0.07084015
117	0x3e005815	0.125336
118	0xbe1bfe89	-0.15233816
119	0x3b96e1fe	0.004604577
120	0x3e19588e	0.14975187
121	0x3f4c3615	0.7977002
122	0xbe256969	-0.16153492
123	0xbeaad060	-0.33362103
124	0x3e35534d	0.17707558
125	0x3e8b9311	0.2726064
126	0xbe8aa05c	-0.2707547
127	0x3e12becc	0.14330596
128	0xbe3049db	-0.17215674
129	0xbe2f6291	-0.17127444
130	0xbdc1b4f9	-0.09458346
131	0xbee6d0fb	-0.45081314
132	0xbe66882e	-0.22512886
133	0xbe8c76e5	-0.2743446
134	0xbebb8d79	-0.36631373
135	0xbe989da8	-0.29807782
136	0xbe889235	-0.26674047
137	0xbe7022b3	-0.23450737
138	0xbe95318b	-0.2913936
139	0xbe7450a5	-0.23858888
140	0xbdb618af	-0.08891427
141	0xbe33bc79	-0.17552365
142	0xbeb79ca4	-0.35861695
143	0xbe8e5846	-0.27801722
144	0x3e8b953b	0.2726229
145	0xbdc38f9d	-0.095488764
146	0xbf169ca1	-0.58832747
147	0x3eaf0bb8	0.34188628
148	0x3e350774	0.17678624
149	0x3dcf1ba9	0.10112698
150	0x3d72afa7	0.059249546
151	0x3e140605	0.14455421
152	0x3e3b2e55	0.18279393
153	0xbf0f87ce	-0.56066597
154	0x3eee5939	0.46552446
155	0x3e884dde	0.26621908
156	0xbf4eff50	-0.80858326
157	0xbd8cf3b3	-0.068824194
158	0x3c98c01e	0.018646296
159	0x3e323c37	0.17405783
160	0xbd487866	-0.048942946
161	0xbe7a028c	-0.24415034
162	0x3dc53359	0.096289344
163	0xbcfea7f9	-0.031085955
164	0xbf1a78b6	-0.6034044
165	0x3f2e3483	0.68048877
166	0xbf1c9778	-0.6116862
167	0x3ea82457	0.32840225
168	0xbec3d734	-0.38250124
169	0x3f7ee10c	0.99562144
170	0xbf05ddba	-0.5229145
171	0xbf39085a	-0.7227837
172	0xbce6f44c	-0.028192662
173	0x3e479258	0.1948942
174	0xbe9d50e9	-0.30725792
175	0x3f597d34	0.8495667
176	0xbee93d3a	-0.45554525
177	0x3ed83b6f	0.42232844
178	0x3d9e0d85	0.077174224
179	0xbd18f940	-0.03734708
180	0x3e9eb932	0.31000668
181	0x3e965b46	0.2936651
182	0x3eae2182	0.3400994
183	0x3ed68718	0.41899943
184	0xbec0a725	-0.3762752
185	0x3f339221	0.7014485
186	0x3c884cd4	0.016638197
187	0xbd9c26cc	-0.076245874
188	0x3ebf6c64	0.37387383
189	0x3d81f733	0.06345978
190	0xbea28c36	-0.31747597
191	0x3f14b292	0.58084977
192	0xbee3da4c	-0.44502485
193	0xbe0c9e84	-0.13732344
194	0x3f41ce52	0.75705445
195	0xbee72fa0	-0.45153522
196	0xbeb430fb	-0.3519362
197	0xbe28fe4f	-0.16503261
198	0xbf1fc7af	-0.6241407
199	0xbb5c4ddf	-0.003361575
200	0xbf51aab1	-0.8190108
201	0x3f324212	0.69632065
202	0xbf184117	-0.5947432
203	0xbf0e1073	-0.5549385
204	0x3f286192	0.6577388
205	0x3d9bbc23	0.076042436
206	0xbe65f87c	-0.2245807
207	0x3e2399b3	0.159766
208	0x3d45c0be	0.048279516
209	0xbd0abda9	-0.03387228
210	0x3e951499	0.29117277
211	0x3efdc4f2	0.4956432
212	0xbe1e5f25	-0.15465982
213	0xbdab1e20	-0.08355355
214	0xbec2edf7	-0.38072178
215	0x3e88f87f	0.26752087
216	0x3ddfd6e7	0.10929661
217	0x3ee4d03f	0.4469013
218	0xbe785800	-0.2425232
219	0xbeeeb6af	-0.46623752
220	0x3f1906b4	0.59775853
221	0xbe2c9415	-0.16853364
222	0xbe287568	-0.16451037
223	0x3eb194c2	0.34683806
224	0x3eb64bcf	0.35604712
225	0xbe9169d3	-0.2840105
226	0xbe4faef5	-0.20281585
227	0x3e218914	0.15774947
228	0xbdb9d9f8	-0.09074777
229	0xbe973e8e	-0.29539913
230	0xbe8a7c13	-0.27047786
231	0xbe507122	-0.20355657
232	0x3ea0f6ae	0.31438202
233	0xbf47c227	-0.7803063
234	0xbe9e5244	-0.3092214
235	0xbbeb6335	-0.0071834573
236	0xbea44bac	-0.32088983
237	0xbe855fbc	-0.26049602
238	0x3e835f29	0.2565854
239	0xbf1eff1c	-0.62108016
240	0xbe947531	-0.2899566
241	0x3e61b3b2	0.22041205
242	0x3efc6d22	0.49302012
243	0xbef6841e	-0.48147672
244	0xbe6ce729	-0.23135056
245	0x3ecce740	0.4002018
246	0xbf26465b	-0.64951104
247	0x3e79a7ef	0.24380468
248	0xbf17ec68	-0.593451
249	0x3dc5a681	0.09650899
250	0xbf41f973	-0.75771254
251	0xbf0b4723	-0.5440542
252	0x3e977deb	0.29588255
253	0x3ea797d7	0.32733032
254	0xbe683983	-0.22678189
255	0x3e262730	0.16225886

conv1.bias f4 [16]
0	0x3ee4c8a8	0.4468434
1	0xbd642800	-0.05570221
2	0x3f418650	0.7559557
3	0x3f1d467b	0.6143567
4	0x3f0775f0	0.52914333
5	0xbf0810e7	-0.5315079
6	0x3e23179f	0.1592698
7	0xbf037130	-0.51344585
8	0x3e76439c	0.24049228
9	0x3f28bb7c	0.6591108
10	0x3f04affd	0.51831037
11	0x3f06b96f	0.526267
12	0x3e0f69cd	0.14005204
13	0x3e0daf63	0.13836436
14	0x3edb449e	0.42825788
15	0x3f449eb5	0.7680467

conv2.weight f4 [16, 2]
0	0x3aaaa818	0.0013020067
1	0xbe4f7632	-0.20259932
2	0x3e9141a4	0.28370392
3	0x3eaaea0f	0.33381698
4	0xbdb4f76f	-0.08836257
5	0x3f2963ca	0.6616789
6	0x3d04328b	0.032274764
7	0x3d364c04	0.044506088
8	0x3de289e0	0.11061454
9	0xbecc4d28	-0.39902616
10	0xbe15006b	-0.1455094
11	0x3c9a8c37	0.018865688
12	0x3ea2a951	0.31769803
13	0xbd911493	-0.07084002
14	0xbe2e1054	-0.16998416
15	0x3d2ad8ae	0.041710548
16	0xbdde8595	-0.108653225
17	0xbe99cae3	-0.30037603
18	0xbf87b787	-1.0602883
19	0x3cac9221	0.021065773
20	0x3ed6214a	0.41822273
21	0xbedfe532	-0.4372955
22	0x3dbc398f	0.09190666
23	0xbe302c9b	-0.17204516
24	0xbe7e0bd3	-0.24809198
25	0x3eaf5bff	0.34249875
26	0xbe86b15c	-0.2630719
27	0xbe313528	-0.17305434
28	0x3ee4f1b9	0.4471567
29	0x3da0c2ed	0.07849679
30	0xbea7fe2a	-0.328111
31	0x3f53f601	0.8279725

conv2.bias f4 [2]
0	0x3f1b914f	0.607686
1	0xbf1b914d	-0.60768586
